model_8000.pth (torch, 271111 bytes, 6 tensors)

l1.weight f4 [256, 2]
000000 59 a5 03 3f d4 89 07 3f 7c 69 14 be 9a 4a 46 3f
       0.51424176 0.52944684 -0.14493364 0.7745758
000010 e0 f3 82 be 07 a0 24 bf cb 08 c2 3e 9b 8f 54 3f
       -0.25576687 -0.6430668 0.37897334 0.83031625
000020 6c 8f 3f be 29 47 af be 8d 60 dd bd 65 73 12 bf
       -0.18707055 -0.34233978 -0.10809431 -0.5720733
000030 14 a4 a7 be 1a 4c b7 be fc 29 29 be 65 38 2c bf
       -0.3274237 -0.35800248 -0.16519922 -0.6727355
000040 76 eb 12 bd d5 c3 00 3e 6b 85 14 3f 9a 5b 43 3f
       -0.035869084 0.12574704 0.5801608 0.7631165
000050 e6 11 5a 3f 48 2d eb be 0e 28 e2 bf 2e f9 4e 3e
       0.8518356 -0.45932984 -1.7668474 0.20212242
000060 6d e4 41 3f da 0f 17 bd fd 19 c2 bc 06 4a 26 3f
       0.75739175 -0.03688035 -0.023694033 0.649567
000070 4e 7c eb 3c 54 1b 61 be 57 5e 9e bd 99 de 8e be
       0.028745797 -0.21983081 -0.07732838 -0.27904204
000080 a2 99 c1 3e 35 3f a1 bd a0 6f b6 3e 38 69 aa bf
       0.37812525 -0.07873384 0.35632038 -1.331336
000090 65 e0 62 3e ff 57 28 bf be cc 60 bf a5 07 07 bf
       0.22155912 -0.6575927 -0.8781241 -0.5274604
0000a0 0e 58 0c 3f c2 79 2f 3f 2d 49 6e be 44 4e 36 bf
       0.5482186 0.6854516 -0.23270102 -0.71213174
0000b0 86 3c 88 be 2c 7c 0c 3f 1a e7 0b 3c 15 a4 43 3f
       -0.26608676 0.5487697 0.008538986 0.76422244
0000c0 33 64 19 3f ef 83 9c bf 15 a4 e3 3d 7c 1a 24 3f
       0.59918517 -1.2227763 0.111152805 0.6410291
0000d0 30 0e 2c be 00 16 2e bf e6 c7 80 3e ae c1 55 3e
       -0.16802287 -0.6800232 0.2515251 0.20874664
0000e0 2a 2d 65 3e 3f cd 1e 3f 12 f7 02 be d5 ca 6f bf
       0.2238051 0.6203193 -0.12789562 -0.9366887
0000f0 9b f2 d2 3e 72 f0 8c be f9 3a f7 bd 94 d8 3a 3e
       0.41200718 -0.27527195 -0.12071795 0.1824668
000100 7c 88 2a 3e c0 84 ec 3e c0 74 fc 3d f4 b9 1a be
       0.16653627 0.4619503 0.12326956 -0.15109998
000110 31 ea 29 3e 79 7b 1e 3f c9 e9 eb bb b0 6f a4 be
       0.16593243 0.61907154 -0.0071995 -0.3211646
000120 92 a4 40 be 6c 0e 45 bf e2 34 23 3f a6 d9 df be
       -0.18812779 -0.7697513 0.6375257 -0.4372074
000130 96 67 37 3f 88 cb a7 bf 60 00 a1 bc a0 0a 04 bf
       0.71642435 -1.3108988 -0.0196535 -0.5157871
000140 82 61 63 3c 31 f5 a7 be 05 60 9b 3e 00 ac 44 3e
       0.013878228 -0.32804254 0.30346695 0.19206238
000150 be 61 81 3d 51 9a 58 be 58 93 3b 3e f8 7b 79 be
       0.06317471 -0.21152617 0.18317926 -0.24363697
000160 bc 6e 2e 3f 50 b8 f8 be 36 2c 36 3f 9f 80 5b bf
       0.6813772 -0.4857812 0.7116121 -0.85743135
000170 4a 37 73 be 8e 51 0b bf f8 f6 33 be 96 76 2f bf
       -0.2375156 -0.5442132 -0.1757468 -0.6854032
000180 04 11 c8 3c dd df 67 be 4a 6b 29 bf c8 7d c3 bd
       0.024422176 -0.22643991 -0.66179335 -0.09545475
000190 8f 04 27 bf 90 73 b0 bd 48 1d 02 bf 14 43 80 3e
       -0.6524133 -0.08615792 -0.5082593 0.25051177
0001a0 55 15 62 3d f1 2a 46 3f ca 89 45 bf 25 a9 7b 3e
       0.055196125 0.77409273 -0.77163374 0.24576242
0001b0 91 f3 45 3f 28 42 89 bf 85 f4 85 be 36 fb f1 3e
       0.7732478 -1.0723314 -0.26163116 0.4726197
0001c0 6e 83 5b 3e d8 15 11 bf dc ec 1d 3f 55 f2 b6 3d
       0.21436855 -0.56673956 0.61689544 0.0893294
0001d0 5c be 26 3d b3 1b 18 3f c5 b7 14 3e 30 c7 54 3f
       0.040708885 0.59417266 0.14523228 0.83116436
0001e0 e0 f1 d2 bd 5e e6 ef be ea 04 c6 be 21 d0 24 bf
       -0.1030004 -0.46855444 -0.38675624 -0.6438008
0001f0 46 97 b0 bc 22 f3 03 3f 54 3f 0b be 3a 6e 23 bf
       -0.021556508 0.51542866 -0.13598377 -0.6384007
000200 a9 58 40 3f 91 e3 97 3e 17 af 46 3f 43 dd 36 3f
       0.75135285 0.29665807 0.77610916 0.7143137
000210 b3 24 be be 96 6a 99 3e a1 23 2f 3f ad a0 63 bd
       -0.37137374 0.2996413 0.6841374 -0.055573154
000220 b1 70 23 3f c3 c0 ea bd ab 49 3f be 68 13 55 3f
       0.6384383 -0.11462548 -0.18680446 0.83232737
000230 60 7a 1a bd 60 59 3b 3e 62 24 91 3f d5 7b 00 bc
       -0.037714362 0.18295813 1.1339228 -0.007842024
000240 ee e1 27 3e 53 7b c0 bd 53 b1 36 be d0 18 35 3f
       0.16394779 -0.09398522 -0.17841081 0.70740986
000250 95 7d 3c bd 91 67 47 3f 0a fe a8 3b 01 fb ee 3e
       -0.0460182 0.77892405 0.005157237 0.46675876
000260 2f b7 01 be b6 27 68 3f 10 8d 81 be 03 32 41 bf
       -0.12667535 0.90685594 -0.25302935 -0.75466937
000270 bc f1 e6 3e 77 ad 3d 3f 34 55 e2 be f8 f0 0a bf
       0.45106304 0.7409281 -0.4420563 -0.5427394
000280 dd af ef 3e a5 8c 49 3f 7c 66 d7 3e df 74 7f bf
       0.4681386 0.7873023 0.42070377 -0.99787706
000290 9c 6a 46 3f cd 3d 3f 3f af 8f 6d be 80 b2 ff be
       0.77506423 0.74703676 -0.23199342 -0.49940872
0002a0 08 21 e3 3d 71 15 ea 3d 38 eb 96 be 14 df 54 3e
       0.110902846 0.11429871 -0.29476333 0.20788223
0002b0 f1 d0 80 3f 33 bc 59 be 93 22 5a 3f aa 4d 23 be
       1.0063764 -0.21263199 0.85209006 -0.15947595
0002c0 23 0d 93 bd 06 63 82 be 96 1b 3e 3e 06 f1 02 bf
       -0.0718024 -0.25466174 0.1856521 -0.5114902
0002d0 40 44 a4 bf ff d5 2e 3f f0 96 ac be 30 13 c4 be
       -1.2833328 0.6829528 -0.33708906 -0.3829589
0002e0 db 66 bf 3c 81 66 8e 3e 72 92 57 3e 89 e8 17 3f
       0.023364475 0.2781258 0.21051958 0.59339195
0002f0 f4 46 a0 be 78 0a 22 bf e4 3f 09 3f 10 ea b8 3e
       -0.31304133 -0.63297224 0.53613114 0.36116076
000300 3f d3 d9 3d 16 4b 2f 3f 18 2a 5f be 18 a6 eb be
       0.10635995 0.6847395 -0.21793401 -0.46025157
000310 c5 48 bc 3e 1b 85 61 3f 6a 8f b8 3d d8 72 52 be
       0.3677427 0.8809373 0.09011729 -0.20551622
000320 be 9d 4f 3e 1c 62 27 3f 40 a4 f5 3c 40 56 e4 bc
       0.20275018 0.6538408 0.029985547 -0.027873158
000330 a5 60 15 3f d8 e8 3c bf 2c 8b 57 3e 30 91 2d bf
       0.5835059 -0.7379279 0.21049184 -0.67799664
000340 d4 fa 28 3f 31 5d c2 be e2 04 90 3d 53 2a 40 3f
       0.66007733 -0.37961724 0.07032181 0.7506458
000350 83 94 8d be d1 ae 3e bf a1 58 5c bd 35 0a 42 3f
       -0.27652368 -0.744855 -0.05379546 0.75796825
000360 40 36 56 bc c6 d5 ab be 63 56 48 be 92 5e 40 bf
       -0.013074458 -0.33561534 -0.19564204 -0.751443
000370 32 01 13 3f ef bf 9e 3e ae 8e 67 3f 73 2d 5b bd
       0.574237 0.3100581 0.90452087 -0.05351014
000380 ed c2 8f bf 7f 71 14 3f da d3 3a 3d 45 ba ba be
       -1.1231362 0.5798568 0.045612194 -0.36470237
000390 71 65 1e bf 1d ef bf be 3b b2 46 be dc 4a 26 bf
       -0.6187354 -0.37487116 -0.19403927 -0.64957976
0003a0 22 24 28 3e 4d 74 e8 3e c5 66 3f 3e de 34 26 3f
       0.16420034 0.4540123 0.18691547 0.6492442
0003b0 4a 50 0e be 54 d8 58 3f be b9 e0 be e0 e4 23 bf
       -0.13897815 0.8470509 -0.4389171 -0.6402111
0003c0 9e 41 7d be 38 11 87 be 25 30 26 bf 42 3d d4 3e
       -0.24732062 -0.26380324 -0.6491721 0.41452986
0003d0 98 78 c9 3c 55 5a f4 3e 96 51 31 3f ae 1f 80 bf
       0.024593636 0.47725168 0.69265115 -1.0009668
0003e0 97 a0 03 be 54 cc 4a 3f 58 71 03 3f f0 74 96 bf
       -0.12854229 0.7921803 0.51344824 -1.1754436
0003f0 a3 99 bc be 0f 98 ff be e0 df 12 3f bd c7 08 bd
       -0.36835966 -0.499207 0.57372856 -0.03339361

l1.bias f4 [256]
000000 10 ee 5e 3f c5 5a c9 3f d1 8f d9 be e7 01 ee be
       0.87082005 1.5730826 -0.42492536 -0.46485826
000010 54 16 76 be ed 9f c5 3e 80 2c f1 bd 7b d9 01 bf
       -0.24031955 0.38598576 -0.11776066 -0.50722474
000020 59 a5 a0 3f a6 fc b5 3f 6d 60 95 3f b8 44 91 3f
       1.255046 1.4217727 1.1670052 1.1349096
000030 b2 b7 ad 3f f4 ac 89 3f 22 58 cf 3f 75 68 a4 3f
       1.3571684 1.0755906 1.6198771 1.2844378
000040 8d d9 86 3f 09 d8 39 3f c6 43 bb 3e 63 80 11 3f
       1.0535141 0.7259527 0.36575145 0.5683653
000050 16 17 8f 3f 4b fd 30 3f 74 f8 86 3f d4 ad 76 3f
       1.117892 0.69136494 1.0544572 0.9635899
000060 f8 62 f8 3d 79 14 22 bf 1a 12 1a 3f 5f 24 9a 3f
       0.12128252 -0.6331249 0.6018387 1.204235
000070 05 4f 1a bc 2d 31 f8 3e 82 0e 6b 3f b7 0c ac 3f
       -0.009418254 0.48475018 0.9181901 1.344138
000080 cd 0d 5b 3f b8 56 11 bf 0b b9 aa 3f 4f 53 bd 3f
       0.85567933 -0.5677295 1.3337721 1.4791049
000090 90 aa 0d 3f 63 d0 52 bf 92 b6 0e 3e 3e 3d ee be
       0.5533838 -0.8234922 0.13936833 -0.465311
0000a0 15 96 b4 3f 37 ee cb 3f 13 64 c0 3f 0f 6b b4 3f
       1.4108301 1.5932072 1.503054 1.4095172
0000b0 39 32 c3 3f 0e 2a 16 3e 1c 24 95 be 4c f3 0d 3f
       1.5249702 0.1466448 -0.29129112 0.55449367
0000c0 69 85 b9 3f 6b 82 ac be c2 b7 57 be 05 bf 2e bf
       1.4493839 -0.3369325 -0.21066192 -0.6826022
0000d0 ed cb 12 3d cd 63 6a 3f 1a 87 9e bd b0 fb 96 3f
       0.03583901 0.91558534 -0.07740612 1.1795559
0000e0 7b 60 4a 3e 2e 69 c8 3f 00 89 c6 3e f9 01 a2 be
       0.19763367 1.5657098 0.38776398 -0.3164213
0000f0 88 11 32 bf 24 d0 24 be 41 b0 8a 3f 52 05 ed 3e
       -0.69558 -0.16095024 1.0835038 0.46293122
000100 29 c6 92 3f 99 5e 99 3f c7 aa 20 bf 54 11 91 3f
       1.1466724 1.1981994 -0.62760586 1.1333413
000110 6d 5d cf 3f 15 35 dc 3e 67 cf 31 bf 34 db 0c 3f
       1.6200386 0.43009248 -0.69457096 0.5502198
000120 b7 aa a3 3f 5d ef d3 3f b0 41 a4 3f d8 bd 77 3f
       1.2786473 1.6557423 1.2832546 0.96774054
000130 d5 c0 ac 3e 6f 3e 40 3f f8 3a be 3f d8 c6 de bd
       0.3374087 0.75095266 1.4861746 -0.1087777
000140 c5 50 f4 3e 72 2d 77 3e 47 25 ad 3f 7d 41 33 3f
       0.47717872 0.2413843 1.3527001 0.700218
000150 54 ca 82 3f 1b f0 99 3f 94 ea 70 3f 8d 3e a9 be
       1.0217996 1.2026399 0.9410794 -0.33055535
000160 39 04 98 3f b2 6e 79 3e a8 4c 0f 3f 09 19 0d bf
       1.1876289 0.24358633 0.55976343 -0.55116326
000170 69 4c b3 3f 47 78 95 3f 9d 62 6d 3f 2f a1 7e 3f
       1.4007694 1.1677331 0.92728597 0.99464697
000180 b3 32 64 3f 48 19 14 bf 16 94 d2 be ce 69 4e 3f
       0.8913986 -0.57851076 -0.41128606 0.80630195
000190 d3 b4 12 3f 3c f6 5e be f7 9d 6e be 05 47 23 bf
       0.57307166 -0.21773618 -0.23302446 -0.6378024
0001a0 e5 b0 9b 3f e4 8e b5 3f e6 3f 4a 3f 48 07 04 3f
       1.2163359 1.4184232 0.7900375 0.5157361
0001b0 f0 8e c7 be 97 99 1f 3f f1 5c cf 3f 10 e6 23 3f
       -0.3897624 0.62343735 1.6200238 0.6402292
0001c0 76 1e 0c 3f a4 19 a9 3f d3 63 8d be cf c1 1a 3f
       0.5473398 1.321095 -0.27615222 0.6045198
0001d0 41 3b 97 3e 81 a1 b4 3f 71 dc c9 3d 90 03 cf bd
       0.29537395 1.4111787 0.09856499 -0.10108101
0001e0 50 69 84 3f 9e b6 b9 3f 2a 79 6c 3f aa 7b 40 bd
       1.0344639 1.4508855 0.9237238 -0.046992935
0001f0 cf ce c3 3f f5 69 6e 3e fd 7e 2d bf 7d 13 3c 3f
       1.5297488 0.23282607 -0.67771894 0.73467237
000200 5c ea ff 3d f1 6e 09 bf 13 d1 c8 3e 1a 4c 82 3f
       0.124958724 -0.5368491 0.3922201 1.0179474
000210 b4 8e bd 3f 21 0b 8a 3f 96 c5 eb 3e 69 0c ae 3f
       1.4809175 1.0784646 0.46049184 1.3597537
000220 62 8a 6f 3f cd ca b1 3f 1f 29 83 3f 61 0c 4d bf
       0.9357053 1.3890015 1.0246924 -0.80097014
000230 c0 2f 4a 3f 5f 6e 7f 3f b5 71 b3 3f 5c a8 01 bf
       0.7897911 0.9977779 1.4019076 -0.5064752
000240 bc 8d 24 bf e5 fe 0a 3f 50 ee 55 bd cc bf 47 be
       -0.6427877 0.5429519 -0.052229226 -0.19506758
000250 d0 f9 1c bf d0 97 c0 3e 9a a0 5d 3f 6a a9 e6 3d
       -0.61318684 0.37615824 0.86573184 0.11262782
000260 12 cd 48 3e 7a d3 2e 3f f0 49 0b 3f e3 ad 0f 3f
       0.19609478 0.6829144 0.54409695 0.56124705
000270 0a ff 0c 3f 86 10 4b bf ba e6 d7 3e 51 21 c0 3f
       0.5507666 -0.7932209 0.42168218 1.5010167
000280 56 c4 b9 3f 1f f1 81 3f c2 01 f6 3e 13 3c b9 3f
       1.4513042 1.0151709 0.48048216 1.4471458
000290 62 da 10 3f 31 00 7f 3f f2 25 21 3f b4 25 97 be
       0.56583226 0.9960967 0.62948525 -0.29520953
0002a0 88 d6 3e 3f 9d 07 e9 be 11 25 96 3f 33 e5 ce 3f
       0.745461 -0.4551362 1.1730062 1.6163696
0002b0 72 f3 0c bf b4 c2 4b 3f 0a 79 00 bf 35 bd 62 be
       -0.5505897 0.7959397 -0.5018469 -0.22142489
0002c0 9b 3c 87 be 64 f9 27 bd ad a3 e6 3d de 0d a5 3f
       -0.26413426 -0.04100932 0.112616874 1.2894857
0002d0 ec 1f 71 be 88 25 fa bd a3 1f c8 3f a0 35 a9 3f
       -0.23547333 -0.1221419 1.5634655 1.321949
0002e0 fc fd 00 bf b4 a6 c1 be d0 c8 07 bd 6b a2 b3 3f
       -0.5038755 -0.37822497 -0.033150494 1.4033941
0002f0 92 a1 d2 3d 8b 2d df be 5a ca a0 3e f2 d9 d5 3e
       0.10284723 -0.43589434 0.31404382 0.41767842
000300 94 ae 10 bf b9 b5 d9 3d bc a5 30 3f 79 d6 e9 3d
       -0.56516385 0.10630364 0.6900289 0.114178605
000310 d5 80 b5 3e 17 59 f1 be 1c d9 2e 3f 8e 6c ac 3e
       0.35449854 -0.47138283 0.6830003 0.3367657
000320 2c 3a 46 3f 21 78 ab 3f c6 9a 15 bf 27 d1 97 3f
       0.77432513 1.3396035 -0.5843929 1.1860703
000330 9a b4 bb 3f 40 4e ef 3e 42 59 30 3f 90 80 e0 3e
       1.466449 0.46739388 0.68886197 0.43848085
000340 02 d3 96 3f e7 2f 20 3f bb 4b e5 3e 9e 8a a3 3f
       1.1783144 0.62573093 0.4478434 1.2776678
000350 70 c7 5c 3f 5d da e1 3e ea 58 e9 3e 60 5f c8 3f
       0.8624182 0.4411191 0.4557565 1.5654106
000360 9c 38 12 3f 59 e5 a1 3f d5 31 7d 3f d4 39 8d 3f
       0.5711763 1.2648116 0.9890416 1.1033273
000370 7b a0 27 bf 1d 8b 83 bf 14 d3 16 3f f2 75 11 bd
       -0.6547925 -1.0276829 0.5891583 -0.035512872
000380 f5 4a 3c 3f 98 cd aa 3f 8a 46 a6 3f da 8f 11 bf
       0.73551875 1.3343992 1.2990277 -0.56860125
000390 7f d2 df 3f 24 55 cf 3d ac 0f d0 3f b2 93 3e 3f
       1.7486113 0.10123661 1.6254783 0.74444115
0003a0 0b e1 8a 3f 44 fa 80 bf 7f 9b d0 3e 01 93 3d 3e
       1.0849928 -1.0076375 0.40743634 0.18513109
0003b0 47 95 4e 3e b9 ee 28 bd 55 dd de 3e 9d 16 32 3f
       0.20174132 -0.04124329 0.43528238 0.69565755
0003c0 e1 1b 03 bf a8 1d 01 bf 15 a8 ff 3e 7b e0 ac 3f
       -0.51214415 -0.50435877 0.49932924 1.3506006
0003d0 5e 75 10 3f 08 a0 c7 3f af bd cf 3f dd 12 d0 3f
       0.5642909 1.5595713 1.6229762 1.6255757
0003e0 f4 15 e6 ba f5 35 10 bf 6d 7f 8a 3f 77 fa 4b be
       -0.001755415 -0.5633233 1.0820137 -0.19919764
0003f0 fd c1 a3 3f 13 ee 5f 3f e1 ed d6 3f a4 9a e0 3e
       1.2793576 0.8747265 1.6791345 0.4386798

l2.weight f4 [256, 256]
000000 13 f4 21 bd a5 d0 29 bd 4e d5 1b bd c6 4c 38 bf
       -0.039539408 -0.041458745 -0.03804522 -0.71992147
000010 0c 43 93 3c f3 a2 58 3f c0 4b ef bb 40 ea f5 3c
       0.017976306 0.8462364 -0.0073027313 0.030018926
000020 33 3e 34 3d 5a b6 d4 bc 63 67 67 3e 62 84 7e bf
       0.04400463 -0.025965858 0.22598033 -0.9942075
000030 e9 70 bf 3d 4a 3a aa be 40 c2 ac 3e 6e 02 9e 3d
       0.09347708 -0.33247596 0.3374195 0.07715307
000040 0f 40 15 3e 5e ce b7 3e 08 36 87 3e 86 58 32 bf
       0.14575218 0.35899633 0.2640841 -0.69666326
000050 cc a9 d9 bd 2b 93 7b 3f 0d b1 28 be 58 4e 7d be
       -0.10628089 0.98271435 -0.1647379 -0.24736917
000060 07 4c 1d 3e 60 f8 08 bf 62 98 5f 3f d4 1a 81 3d
       0.15361033 -0.5350399 0.8734189 0.06303945
000070 15 c5 3d bf f0 1a 46 3f 98 52 68 3e b4 8a fc bd
       -0.7412885 0.77384853 0.22687757 -0.12331143
000080 d8 e0 59 bd 40 b6 bf 3a 87 d7 ba 3c 53 b7 26 3f
       -0.053192943 0.0014626458 0.02280785 0.6512348
000090 ac 2b 21 3f b4 f4 7e be 58 74 e2 3d 76 55 09 3d
       0.62957263 -0.24898034 0.11057347 0.033528768
0000a0 89 f5 29 3f d9 f8 a6 3d f9 bf 96 3e 0d dc 91 3e
       0.6639028 0.08152933 0.2944334 0.28488198
0000b0 41 21 49 3e ed 32 98 3d 70 5e a6 3b a1 1b 5a 3f
       0.19641592 0.07431588 0.005077176 0.8519841
0000c0 ec 16 9b 3e 40 14 b6 ba 70 25 fe 3b 00 fc 26 3a
       0.30290926 -0.0013891533 0.0077559277 0.00063699484
0000d0 5f c2 3d bf 8d 62 93 bf dc 40 ec bd a7 12 8f bd
       -0.7412471 -1.151445 -0.115358084 -0.069859795
0000e0 b7 2e 8b 3e 0e d4 d1 3c e5 a7 3d bb e7 e7 08 bf
       0.27184078 0.02561381 -0.0028939184 -0.53478855
0000f0 d0 0f 51 bd 36 4c 7b bd 4d c7 40 be c9 18 45 3f
       -0.05104047 -0.061351977 -0.18826027 0.76990944
000100 2b 1b 90 bd cf f1 a7 bc 00 8a 2e bb c6 e9 68 3d
       -0.07036432 -0.020501046 -0.0026632547 0.05686357
000110 5d 3f 13 3e 73 91 d8 be ce cc 3e 3d 70 7d 9b 3d
       0.1437964 -0.4229847 0.046582036 0.07592285
000120 30 d1 83 3e 53 4f 92 bd 3b b5 ef bd da 0f eb be
       0.25745535 -0.07144036 -0.11704489 -0.4591053
000130 3e f7 00 bf e8 40 68 3f 1d 28 ae bc 8c 64 cc 3c
       -0.5037726 0.9072404 -0.021259362 0.024950288
000140 bd aa 6d be 99 19 5b 3e 95 8e 49 bd 37 fe 1b 3f
       -0.23209663 0.21396483 -0.049208242 0.60934776
000150 99 0f c0 3c 67 7f 86 be 6d 41 16 3e e7 2d 88 be
       0.023444938 -0.26269075 0.14673395 -0.2659752
000160 66 a7 bf 3e ee 7e 85 3e 2f 2b 83 bf 80 5c 7d 3a
       0.37432402 0.26073402 -1.0247554 0.00096649677
000170 0d 7a aa 3d 0b ae fb bc 8b 13 f7 3e 25 24 4d bd
       0.083240606 -0.030722639 0.48257098 -0.0500833
000180 3d d2 ff bd 00 3c 8a 39 2f 59 3a bf f8 80 68 3e
       -0.12491272 0.00026366115 -0.72792333 0.22705448
000190 a3 08 46 be 64 bf 5f bd ee e2 91 be 22 ab 2c 3d
       -0.19339232 -0.054625884 -0.28493446 0.042155392
0001a0 d8 41 11 3e de b4 b6 3b 95 47 0e 3f d5 f3 9f bd
       0.14185274 0.0055757603 0.55577976 -0.07810179
0001b0 50 6f ca 3c 0b d4 83 3f 98 3e 4f 3b 38 23 99 3d
       0.024711281 1.0299085 0.0031623002 0.074774206
0001c0 e8 f6 88 bf 13 c6 2d 3f c0 ee 5f bd 99 8a f7 3e
       -1.070035 0.6788036 -0.05467105 0.4834793
0001d0 5e 1b 0c bf 75 80 86 bd 44 b1 27 3e 76 29 51 3d
       -0.5472926 -0.0656747 0.16376215 0.05106493
0001e0 a5 d6 19 3f 02 38 fc bd a3 38 c1 be 15 ce 16 be
       0.60093147 -0.1231537 -0.37738523 -0.14727052
0001f0 2f ec f9 bd 05 61 34 3e b0 c7 08 3c 8d ba 59 3d
       -0.122032516 0.17615135 0.00834839 0.053156424
000200 d2 6a 30 bf 8c 20 53 3d d8 b5 00 bf be 15 c0 be
       -0.68912995 0.05154471 -0.5027747 -0.37516588
000210 07 ba 54 3e c9 43 c6 be 05 b3 4c 3f 8d 77 2c 3c
       0.20774089 -0.3872359 0.7996066 0.01052655
000220 38 ca 96 be a8 d4 be 3d fc c9 53 be 6c ee 4e bf
       -0.29451156 0.09317905 -0.2068252 -0.8083255
000230 60 57 5c 3f a5 26 71 bf e1 02 b3 3d a4 0b f8 bc
       0.86070824 -0.9419959 0.087407835 -0.030278988
000240 d2 1e 30 3d fa 60 9b be d8 cb 90 bc 5c 37 52 3d
       0.042998143 -0.30347425 -0.017675325 0.051322326
000250 b4 0d fd bc 6f 5e 74 be 6b bb 74 3e 9b 83 7d bd
       -0.030890323 -0.23864149 0.2389962 -0.061893087
000260 2d 3d 28 3e c6 1a 4f 3f d8 90 69 be 48 ce 40 bf
       0.16429587 0.8090023 -0.2280916 -0.7531476
000270 12 d0 b8 3e ae dd b1 be 7a 0e 6b 3a 22 c8 05 3e
       0.36096245 -0.3473944 0.0008966696 0.13064626
000280 31 a0 1f 3e 59 5b 9b 3c 26 da b7 3e c9 65 21 bd
       0.15588452 0.018964456 0.35908622 -0.03940371
000290 fa 7f 37 bf 49 e0 8c be a6 55 f9 3e 15 a4 3c bc
       -0.7167965 -0.27514866 0.48698157 -0.01151373
0002a0 9d 7d be 3e e0 eb c0 be 1d 4b de bd c4 33 2b 3f
       0.3720521 -0.37679958 -0.108541705 0.66875863
0002b0 11 c1 e8 be 7f 47 22 3f 66 25 23 bd dc 04 0d bf
       -0.45459798 0.63390344 -0.039830588 -0.5508554
0002c0 00 ce 7a be eb 7b bf be 89 2f 5b 3c 1f 72 81 3d
       -0.24492645 -0.3739923 0.0133780325 0.06320595
0002d0 80 eb 23 3a be 84 07 3d 9c e8 6d 3e b2 6d ce 3d
       0.0006253049 0.033085577 0.23233265 0.100795165
0002e0 de ca 34 bf f8 36 29 bd 84 fa ff bc a9 ab ca bc
       -0.7062205 -0.041312188 -0.031247385 -0.024740057
0002f0 5e b3 c3 ba f0 a4 3a 3c cc 8b f8 3e fb f5 1d bf
       -0.0014930775 0.011391863 0.48544157 -0.6170346
000300 20 ea 0f 3c c0 b2 14 be 72 8b dd 3e cc e2 53 3e
       0.008783847 -0.14521313 0.4327045 0.20691985
000310 30 45 b7 bc a3 bc cf be d8 64 24 3e 39 a6 4c 3e
       -0.022371858 -0.40573606 0.16054094 0.19985284
000320 44 aa 8c bf c1 1f 71 bd 4e f6 2a 3d 2e 0a b4 be
       -1.0989461 -0.058868174 0.0417388 -0.35164016
000330 ec 44 4c bd 2b 50 ac bd db 3d d3 bc 97 32 77 bc
       -0.049870417 -0.08413728 -0.02578633 -0.015087745
000340 7a 14 23 3f 9b 4e da 3d 3d 14 e1 3c 8d ec 7f be
       0.6370312 0.10659524 0.02747547 -0.2499258
000350 6a c5 d2 be 07 c9 35 3f 26 19 b1 bd 03 88 a2 3d
       -0.4116624 0.7100987 -0.08647375 0.079360984
000360 a0 8b 70 be 73 50 e8 3d 51 75 51 be 31 8a cb bc
       -0.23490763 0.113434695 -0.20454909 -0.024846168
000370 44 2c 4d bd a6 f2 4f bf 69 7e 22 be 7a 34 75 bf
       -0.050091043 -0.8122963 -0.15868534 -0.957832
000380 8e 55 50 be 8e a0 cf 3d ae 3c 9a bd b4 a4 80 bc
       -0.20345137 0.10138045 -0.07531105 -0.015703537
000390 97 fd d6 3d e4 a8 bb bc 91 53 bf 3d e3 01 66 3f
       0.10497587 -0.022907682 0.09342111 0.8984663
0003a0 16 20 7e be 5b 3a 21 bf 0c 23 24 3f b1 54 89 be
       -0.24816927 -0.6297967 0.6411598 -0.26822427
0003b0 8a f9 94 be a7 d6 7e bd c7 2c 0e 3f be 5d 90 3e
       -0.29096633 -0.062216427 0.55537075 0.2819652
0003c0 98 d1 7d bc 68 3a 14 3d 75 3b 59 3f 11 ff 43 bd
       -0.015491866 0.036188513 0.8485635 -0.047850672
0003d0 19 ef 1e be 70 e9 81 3e 80 f0 bc 3d 93 a4 b0 3d
       -0.15520896 0.2537341 0.09225559 0.0862514
0003e0 86 27 85 bf da 6b 69 bd 42 50 f8 be c0 a5 9c be
       -1.0402687 -0.05698762 -0.48498732 -0.30595207
0003f0 4c 0f 3c 3e 1a f8 3b 3e 1f ad 31 3f 2b f1 9b 3e
       0.1836521 0.18356362 0.69404787 0.30457434

l2.bias f4 [256]
000000 42 3d 86 3e 9c 23 16 3f 0f c0 39 bd bf a8 4b 3f
       0.2621861 0.58648086 -0.045349177 0.7955436
000010 e8 26 8a bd 60 85 27 3e ad 78 11 3f 87 32 e8 3c
       -0.06745702 0.16359472 0.5682476 0.028344406
000020 42 5b 6a bd d6 75 91 3b 8f 14 89 bc 94 2b 53 ba
       -0.057215936 0.004439096 -0.016733436 -0.0008055505
000030 c5 93 03 3f 9a 52 60 3f e6 7f 7f bd b4 5e 2d bd
       0.51397353 0.8762604 -0.062377833 -0.042326644
000040 a7 48 39 3f 52 1e ed 3e 7a 51 6c 3f 80 4f 5f bc
       0.72376484 0.46312195 0.92311823 -0.013629794
000050 30 ec 74 3d 90 4d 0d 3c 20 54 54 3d 10 e6 22 3d
       0.05979556 0.008624449 0.05183804 0.039770186
000060 91 4a 44 3f 40 44 ca 3a 0c c5 bb bd bb f9 39 3f
       0.7667628 0.0015431717 -0.09168443 0.72646683
000070 13 8b aa bd 7b 56 1b bd 7d 4d 19 3f 2a 19 d4 3e
       -0.083273076 -0.03792427 0.5988386 0.4142545
000080 43 4b 48 3f 4c 92 ba 3d 16 dd 0d 3f 38 86 52 3f
       0.7823984 0.09109935 0.55415475 0.8223605
000090 61 e6 d4 bc b0 06 2d 3f 48 13 8a bc fc b5 29 3f
       -0.02598876 0.6758833 -0.016854897 0.6629331
0000a0 b0 31 c7 bb 54 73 97 bd e2 44 56 3f 61 34 41 3f
       -0.0060789213 -0.07395044 0.83698857 0.7547055
0000b0 03 3c 0c 3f 33 48 81 bd 4f b9 4f 3c 03 0d da bc
       0.5477907 -0.06312599 0.012678458 -0.026617533
0000c0 f9 f9 3d bd 6d c1 10 bd 03 a3 cd bb 40 48 29 3d
       -0.04638097 -0.035340715 -0.006275536 0.04132867
0000d0 e0 be 21 3c ca 23 71 bd 46 fe d0 bc 65 05 d6 bc
       0.009872168 -0.05887202 -0.025511872 -0.02612562
0000e0 83 5b ae 3e d6 63 d5 3e 74 67 19 bd 32 0b 6a bd
       0.34054193 0.4167773 -0.037452176 -0.057139583
0000f0 23 b0 62 3f 4d f5 3f 3f 6f 7b 0f 3f e6 50 67 bd
       0.88550013 0.74983674 0.5604772 -0.056473635
000100 2f 69 43 bd 83 67 42 3f ea 7c 1b bd 8f a8 84 bc
       -0.047707733 0.75939196 -0.037960924 -0.016193656
000110 90 9a 20 3f cb aa 5e 3d b9 c4 ba 3e 89 ea 93 3e
       0.62735844 0.0543621 0.36478212 0.28889874
000120 e6 69 3e 3f ec dc 00 3d 10 37 62 bc 34 ff e7 bc
       0.7438034 0.031460688 -0.013807073 -0.028319933
000130 98 ae a8 3e c4 97 47 3f b5 0d 16 3f 4a 13 49 3d
       0.32945704 0.7796595 0.58614665 0.04909066
000140 54 c3 02 3f 64 72 86 bc 0f 85 bf ba 81 bb 53 3f
       0.510793 -0.016411968 -0.0014611798 0.82707983
000150 3b 15 9d 3c 43 71 7a bd 47 d3 8e bd 80 35 6b 3b
       0.019175163 -0.06114317 -0.06973892 0.0035890043
000160 95 6f 81 3c 25 5b 4f 3d 97 8c 45 3f 8a 75 dd bb
       0.015800277 0.05062403 0.7716765 -0.0067583965
000170 af 7e 76 bd d3 26 25 3f d2 7e 23 3d 61 1e 52 3b
       -0.06017941 0.64512366 0.039915867 0.0032061564
000180 79 41 30 3f 8e 6b 29 bd 85 01 26 3f 75 b4 48 3d
       0.68849903 -0.041362338 0.6484607 0.049000222
000190 95 6e 4a 3f 56 0c c8 3c c7 4b 21 3f 3e 17 1b be
       0.79074985 0.024419945 0.6300625 -0.15145585
0001a0 a4 d8 5e 3d d5 64 6e bd 43 5e b2 3e 26 f5 17 3f
       0.054405823 -0.05820163 0.3483754 0.5935844
0001b0 e7 81 1d 3d 4b 61 06 3f e9 3c 62 bd 13 ad 41 3e
       0.038453963 0.5249221 -0.05523387 0.18913679
0001c0 40 dc f1 3c e6 31 37 3f 69 81 9a 3e 68 d4 2c 3f
       0.029523969 0.71560514 0.30176857 0.67511606
0001d0 59 d4 4c 3f 3f 3a 59 3c d5 9e 8a bd 0e bc 50 3f
       0.80011517 0.013258516 -0.06768576 0.8153695
0001e0 13 e8 3c bd ef 49 ca 3e b3 43 20 3f 24 a0 37 3d
       -0.04611976 0.39509532 0.626033 0.044830456
0001f0 34 c8 37 3f 16 b0 12 be 4e 6a 2e 3f dc b5 7e bd
       0.7178986 -0.14324984 0.6813096 -0.062185153
000200 1c c3 9b 3c 98 f6 24 3c ef 3c d6 3c d3 4c 1a 3f
       0.019013934 0.010068558 0.026152102 0.60273474
000210 07 a5 d3 3c 54 52 45 bd 03 d7 05 bd 53 ce 62 3d
       0.025835527 -0.048174217 -0.032675754 0.055372547
000220 da f8 58 3d 13 74 0d 3f 17 4a 83 bc 20 9b 9b 3b
       0.0529717 0.5525524 -0.01602654 0.004748717
000230 9d a4 26 3f 60 91 b7 bb 76 e4 52 bd aa 85 41 3f
       0.6509493 -0.005602047 -0.05148741 0.7559458
000240 81 43 22 3c 4f f4 25 3f 14 5d da 3c c0 ff 0c 3b
       0.0099037895 0.6482591 0.026655711 0.0021514744
000250 4e 1b 1f 3f 28 4a 83 3c b4 1d 47 3f b9 18 e9 3e
       0.6215104 0.016026571 0.777797 0.45526674
000260 90 d2 b2 3b 46 fb 30 bd cf 9d 4c 3f 14 3b 28 3f
       0.00545723 -0.043208383 0.79928297 0.65715146
000270 29 b5 64 3c 60 fc b5 3e fa 6b 2b 3f df 68 bd 3c
       0.013959208 0.3554411 0.66961634 0.023121295
000280 57 d1 8c 3c 41 ab 23 3f c2 56 05 bd be 96 17 3f
       0.017189665 0.6393319 -0.03255344 0.5921439
000290 fc e1 9d bc 4c 3a 4c 3d ba af 05 3f e3 93 b4 3e
       -0.019272797 0.049860284 0.5222126 0.3526908
0002a0 c7 20 4d 3f 86 9a 90 3c 04 f5 87 3c 00 30 16 ba
       0.8012814 0.017651808 0.016596325 -0.00057291985
0002b0 74 e4 2d bd c9 e2 24 3f 81 ca d4 3e 5b 73 c0 3c
       -0.042454198 0.64408547 0.41560748 0.023492506
0002c0 38 d7 89 bc e9 7f 4c 3f 0a 54 81 3e a6 30 68 bd
       -0.016826257 0.79882675 0.2525943 -0.05668702
0002d0 de 85 a2 bb 4b bc 2b 3f a3 86 2b 3f 61 8d 11 3d
       -0.004959806 0.6708419 0.67002314 0.03553522
0002e0 e7 08 6f bd 5a 0b 1f 3d a4 b9 d5 ba d4 70 4e bd
       -0.0583581 0.038829185 -0.0016305936 -0.05040057
0002f0 75 1e 36 bc f0 5d 85 3b c2 c3 3a bd da 2c 7e 3d
       -0.01111566 0.004070036 -0.045596845 0.062054493
000300 f5 a4 08 bd cf 69 60 3d 13 a6 81 3e 04 b9 7c bd
       -0.03336044 0.054788407 0.25322017 -0.061699882
000310 7f 31 82 bd 12 cd c2 3b b6 50 53 3f d2 76 13 3d
       -0.06357097 0.0059448564 0.8254503 0.036001988
000320 e8 0d d0 bc 72 60 40 3f fa 0c ed 3e d7 0b 3f 3e
       -0.025397256 0.75147164 0.46298963 0.1865686
000330 1d 40 ff 3c 02 07 5a bd 45 98 ca 3e 98 9c 55 bd
       0.031158501 -0.05322934 0.39569297 -0.052151293
000340 d2 bb 1d 3d 7d 7e cf bb d4 33 42 3f 22 f1 b1 3c
       0.038509198 -0.0063322173 0.75860333 0.021721426
000350 10 01 6c 3f ef cd 92 bd 74 c0 74 bb b1 e2 1e 3d
       0.9218912 -0.07168185 -0.0037346156 0.03879041
000360 30 36 25 bd d0 ab 19 bd 15 dc 37 3d 83 57 9a 3e
       -0.04033488 -0.03751737 0.04488762 0.3014489
000370 58 ad eb bc 2b b3 2f 3f 33 43 22 3f 10 93 f7 bc
       -0.02876918 0.68632764 0.6338379 -0.030221492
000380 c1 9f 5e 3f 7e 9f 2a 3f 61 0c 13 bd 8e 7d 73 3d
       0.86962515 0.66649616 -0.035900477 0.05944591
000390 ab db 2f 3e 2e 02 2a 3f 70 b5 77 bd 2d fb 17 3f
       0.1717364 0.66409576 -0.060475767 0.5936764
0003a0 16 40 62 3f 9c 67 3e bd bb 13 99 bb 94 9b 89 3d
       0.8837904 -0.04648553 -0.0046715415 0.06719127
0003b0 12 44 74 3d 8f 08 1a 3e 8c f9 cd bc 2b b3 c8 bc
       0.05963523 0.15042327 -0.025143407 -0.024499496
0003c0 cd 71 47 3f 1c 9f 7d be 6c 93 3e bd 2b 34 0b 3f
       0.7790802 -0.24767727 -0.04652731 0.54376477
0003d0 55 f7 42 bd 23 27 0a 3f aa dc 3f bc 7f c7 3c 3f
       -0.047599155 0.5396597 -0.011710325 0.73741907
0003e0 8e 21 0d bd d8 be 5f 3f 6b 34 8b bc 50 fd 0e bc
       -0.03445583 0.8740058 -0.016992768 -0.008727387
0003f0 c5 4b b1 bd 10 7e 70 bd af cf 36 3f 8f 0f 52 3e
       -0.0865703 -0.058713973 0.7141065 0.20513748

l3.weight f4 [3, 256]
000000 dd d3 d1 be 39 df 00 3f 8d 30 9e 3c e5 25 db 3e
       -0.4098195 0.5034061 0.01931026 0.4280235
000010 b0 e5 fb bc a0 f3 c2 be 21 97 c3 3e 96 f2 2b bd
       -0.030749172 -0.38076496 0.3820124 -0.041979395
000020 20 cb 89 3c cd 87 97 bb c6 68 25 3d 71 a2 ec bc
       0.01682049 -0.004624343 0.040383123 -0.028886052
000030 f8 12 cd 3e 76 08 36 3f 8f e5 fa bc 2b f4 d7 3c
       0.40053535 0.7110666 -0.03062704 0.026361546
000040 3c 3c d5 3e 7a 41 2a 3e 9d c1 54 3f 8c 0b 2c bd
       0.41647518 0.1662654 0.8310793 -0.0420032
000050 70 58 f5 bc 30 1d 44 bc 74 a6 df bc 16 78 18 bd
       -0.029949397 -0.0119698495 -0.02730105 -0.037223898
000060 81 b6 bd 3e 2c c1 60 bd 0f c8 fb ba ae 51 13 3f
       0.37053302 -0.054871723 -0.0019209402 0.5754651
000070 b6 3b 48 3e 92 2c cd bc cf a9 0f 3f 24 e3 27 3e
       0.19554028 -0.025045667 0.5611848 0.16395241
000080 72 08 c7 3e 00 c0 c1 be c1 62 80 3e 40 d2 50 3f
       0.3887363 -0.37841797 0.25075343 0.81570816
000090 54 9f b9 3c 8d a4 f6 3e 3c 6c e5 3c 10 c7 90 3e
       0.022658981 0.48172417 0.028005712 0.28276873
0000a0 e4 10 b3 3c 1c 01 6f 3d f3 07 48 3f b8 5a 1c 3f
       0.02185864 0.058350667 0.7813713 0.61075926
0000b0 62 5a e0 3e 07 de 03 bd 80 52 99 3b a9 cc 15 3a
       0.43818957 -0.032194164 0.004679024 0.00057143957
0000c0 0d 3c 4c b9 d6 0d 23 3d 00 c5 b8 bc c4 1f 2f bd
       -0.00019477327 0.039808117 -0.022554874 -0.042754903
0000d0 4e cd 5e 3d f7 dc 30 bb d6 21 d6 bc 40 28 ba 3c
       0.054395013 -0.0026987174 -0.026139181 0.02272427
0000e0 c8 ae c1 3d a0 2e 3f 3e 76 56 6d bc ac 78 a9 bc
       0.09457165 0.1867013 -0.014485946 -0.020687424
0000f0 2c 05 cd 3e 51 38 ce 3e cb 95 15 3e 0a 40 04 bd
       0.40043008 0.4027734 0.14607923 -0.032287635
000100 c0 93 23 bd f5 5d d7 3e 16 89 0e 3d 64 db ec bc
       -0.039935827 0.4206387 0.034798704 -0.028913207
000110 0d d0 06 3f ee a9 14 3d bb 92 07 3e bf e2 e3 3d
       0.5266121 0.03629487 0.13239567 0.11127233
000120 f4 5e b4 3e 43 a9 31 3a b4 16 7f bd 24 e1 39 3d
       0.35228693 0.0006777236 -0.06227751 0.045380726
000130 d1 7e 01 bf 16 6c 0f 3f e7 40 9f 3e 44 8d ab 3c
       -0.5058413 0.560243 0.31104204 0.020941384
000140 56 d3 db 3e d0 65 0e 3d a0 5b 78 bb 3c c7 3c 3f
       0.42934674 0.034765065 -0.003789641 0.7374151
000150 00 2d 07 3c d0 16 cf 3c c0 15 0f bd 10 ab ba bc
       0.008250475 0.025279433 -0.03493285 -0.022786647
000160 a9 bc 56 bd 3b c2 36 3c 10 3d 31 3f c8 75 57 3d
       -0.052426014 0.011154707 0.692338 0.05260256
000170 38 61 a4 bc 8f 0e ec 3e 9c 2f 14 bd db 5f 99 38
       -0.020065889 0.46104857 -0.036178216 7.313463e-05
000180 61 88 c1 3e d0 2e 19 bd 38 a7 fe 3e 28 fe 1b bd
       0.3779936 -0.03739816 0.49736953 -0.03808418
000190 15 e2 2b 3f 15 6c 42 3c 75 be c3 3e c4 98 20 be
       0.6714185 0.011866589 0.38231245 -0.15683275
0001a0 bc 3b e9 bc 7b 7e 27 3d 6c 34 25 bf e4 7c 5f 3e
       -0.028470866 0.040892106 -0.64533114 0.21824986
0001b0 63 b7 1a 3d ca e6 c0 3e f2 ff 52 bd f0 5d b2 bc
       0.037772547 0.37676078 -0.05151362 -0.021773309
0001c0 e9 26 54 bd 4c 42 e4 3e 3c 94 87 3d 96 04 a7 3e
       -0.05179492 0.4458183 0.0662007 0.32620686
0001d0 b4 22 38 3f 40 74 e5 3a f9 07 48 bc d8 3c 0c 3f
       0.7192795 0.0017505959 -0.012208932 0.5478034
0001e0 94 16 29 3d e3 1b 0c 3e 7a a5 d8 3e 80 86 5c 3a
       0.041281298 0.13682513 0.4231375 0.0008412376
0001f0 68 f1 9b 3e 76 f7 95 bc e5 29 a1 3e 68 27 5a 3c
       0.30457616 -0.018306475 0.31477275 0.013315059
000200 d0 09 f7 bb 24 02 13 3d 8c e8 f7 3c 19 74 ee 3e
       -0.0075390115 0.035890713 0.030262254 0.4657295
000210 28 eb 08 3c 46 bf 2b 3d 56 cb 44 bd e1 5e 5d 3d
       0.008356847 0.04193046 -0.04804548 0.05404556
000220 fc e8 22 3d 4b 99 9f 3e 57 67 df 3b e8 97 65 3c
       0.039772972 0.3117164 0.006817739 0.014013268
000230 b2 10 dd 3e a0 4d 68 3b 0c b7 6b bd dc 43 f2 3e
       0.431768 0.0035446659 -0.057547614 0.47317398
000240 a3 8a 48 bd 63 92 ee 3e 10 5d 85 3c a4 97 87 bc
       -0.04896034 0.4659606 0.016279727 -0.0165518
000250 4f fe 82 3e 0e e0 0f 3d 79 79 22 3f 65 41 f3 3e
       0.25584647 0.035125785 0.634666 0.4751083
000260 40 a1 de 3b 58 16 96 3c 01 68 15 3f cc c7 0a 3f
       0.006794125 0.018321201 0.5836182 0.54211116
000270 c6 15 c4 bc 8b a6 4f bf 53 95 fb 3e f6 81 42 bd
       -0.023936164 -0.811135 0.49137363 -0.04748722
000280 b2 6d 36 bd 86 22 85 3e d0 42 3d 3c 2e 2c 8d 3e
       -0.044538207 0.26002902 0.011551574 0.2757277
000290 99 98 35 bd 9e 74 44 3d fa ab af 3e f4 9f f6 be
       -0.04433498 0.047962777 0.34310895 -0.4816891
0002a0 d1 76 26 3f c8 01 50 3d 28 38 32 3d 10 1a e2 3b
       0.6502505 0.05078295 0.043510586 0.0069000795
0002b0 74 26 bf 3c 7d 38 f0 3e c8 a1 0e bf c4 80 55 bd
       0.023333766 0.46918097 -0.5571561 -0.052124754
0002c0 20 56 10 3c ff 0b 9c 3e 63 0d 74 bc 70 80 60 bc
       0.008809596 0.30477902 -0.01489577 -0.013702497
0002d0 1b c1 32 3c ec 60 df 3e 6f 08 02 3f 4e 35 17 3b
       0.010910298 0.43628633 0.5079412 0.0023072544
0002e0 ea 67 4f 3d 98 4c 36 3c e1 85 8d 3c b0 1d 2e bc
       0.05063621 0.01112666 0.017275752 -0.010627195
0002f0 88 ad 9a 3b 88 39 08 bd 2c c2 2e 3d 18 97 9e bc
       0.0047203936 -0.03325799 0.042665645 -0.019359156
000300 85 3c b1 b8 f4 c0 be 3c f5 6a 07 3e 7b ea 09 3d
       -8.45129e-05 0.023285367 0.13224395 0.033670884
000310 dd dd 12 bb f0 52 d2 3b 73 ad 20 3f 33 21 cf bc
       -0.0022410073 0.0064185783 0.6276466 -0.025284385
000320 24 be cf bc 35 53 ce 3e 1c fe 28 3e bb 9f a4 3d
       -0.02535922 0.40297857 0.16503185 0.08038279
000330 ea 19 61 bc 22 86 41 3d e5 61 ba 3d b8 d2 7a bd
       -0.013739089 0.04724706 0.09100703 -0.061236113
000340 80 d4 7f ba 49 8f a1 bc 23 a0 da 3e a2 93 a3 3c
       -0.0009759143 -0.019721644 0.427003 0.019967858
000350 9b f8 3c 3f a8 21 1a bd 6b d0 97 ba 81 3b a7 bc
       0.7381684 -0.037629753 -0.0011582499 -0.020414116
000360 72 43 15 bd 3c 3d 63 bb 92 fd c1 3b f1 37 2b 3e
       -0.036441274 -0.003467395 0.0059201205 0.16720559
000370 71 d0 68 3b 91 3c a3 3e 7a 51 b4 3e 60 c7 8f bc
       0.0035524631 0.31882146 0.35218412 -0.017551124
000380 82 1d 3e 3f 3e 72 c3 3e 61 c4 08 bd 30 aa 67 3c
       0.74263775 0.38173097 -0.033390407 0.014139697
000390 a6 2a 8f bf 62 f8 8c 3e 16 13 90 bb a1 5c 95 3e
       -1.118489 0.2753325 -0.0043968065 0.29172233
0003a0 2e 33 3a 3f 6c 0f 01 3b bd 87 ed be 45 86 0e bf
       0.72734344 0.001969303 -0.46392623 -0.5567363
0003b0 80 75 6d 3b 93 7f ea be a2 25 7c bd 59 57 3b 3d
       0.0036233366 -0.45800456 -0.061559327 0.045737598
0003c0 a2 f5 04 3f 67 97 2a be 01 a3 e3 bc b9 f0 ce 3e
       0.51937306 -0.16659318 -0.027787687 0.40418032
0003d0 e0 f6 76 3c ec b1 83 3e ae e7 19 3b da 5f bf 3e
       0.015073508 0.2572168 0.002348404 0.37377816
0003e0 50 a4 2a 3d 27 89 3f 3f 06 7a 9a 3b 90 46 6a 3c
       0.041660607 0.7481865 0.0047142534 0.01429905
0003f0 4e ce da bc 6c 28 c3 3c 55 15 a4 3e 43 7b 10 bf
       -0.026709702 0.023822986 0.32047525 -0.5643808

l3.bias f4 [3]
000000 d4 db 15 3f 2c 4b ce 3e 08 37 95 3d
       0.58538556 0.40291727 0.07285887
