model_10000.pth (torch, 271111 bytes, 6 tensors)

l1.weight f4 [256, 2]
0.44936866 0.04007594 0.4113182 0.49881828 0.9144501 -0.2858929 0.5674993 -0.35357696
0.7247625 0.8964591 0.2311329 -0.7341695 0.0702719 -1.0891439 0.054311667 -0.20621265
-0.63254106 -0.5323046 0.0768449 1.0754985 -0.7716703 0.08551126 -0.03496921 -0.66263527
-0.3129354 -0.28107098 -0.05406704 -0.14106028 0.973612 -0.48950353 0.40091693 0.40611708
0.7999598 -0.41897374 -0.019098809 1.0684978 -0.3092358 0.6208781 0.6897569 -0.31676725
0.48434955 1.0651063 0.07884741 -1.0766412 0.6999945 -0.5356883 0.43185592 0.34783337
0.13851686 -0.2594156 -0.115886636 0.39221954 0.17316027 -0.6321828 -0.20614101 1.1182237
0.57270557 0.6157756 0.26656708 -1.2299544 -0.9477622 -0.76357883 0.62194794 0.60024107
0.23186669 0.33337656 0.43792075 -0.67207754 0.22008128 -1.2950438 -0.14763702 0.3985437
-0.093890846 -0.0152698755 0.04986094 -1.009777 0.72212887 -0.73488754 0.9377014 0.8960893
0.11145151 -1.0894341 0.80916315 0.4055423 0.8944567 0.9443003 -0.46581092 0.9973889
0.043455604 -1.0100503 0.7866095 0.53117514 -0.19649906 0.5317889 -0.14353731 1.0802212
-0.019779446 0.68389183 0.906669 0.6357775 -0.09615035 -0.2433171 0.40696618 0.971563
-0.04206871 -0.54150754 -0.66751206 -0.6233858 -0.42468056 -0.27341622 0.50427353 -0.27103114
0.30153197 -0.83115005 -0.40779656 0.04664061 0.93093896 -0.22048536 0.022961332 -1.0100209
0.5627559 -0.1137753 0.20025098 -0.33827364 -0.16206801 0.90594137 0.07776111 -1.0615977
-0.5028657 -0.44223154 0.45383227 -0.1714709 0.26124686 -0.8076132 0.06889224 -0.16896063
0.16979732 -0.883847 -0.65315634 0.0534932 -0.37352988 -0.18294549 0.44220373 -0.3333809
-0.9606543 -0.018677127 0.4139391 -0.5142652 0.564088 0.059362266 0.55975986 0.13098626
-0.03231442 -0.5507929 0.012043238 -0.080448866 0.7592058 1.1986083 0.8179755 -0.42983672
0.02437748 -0.8777949 0.31371528 -0.0179785 0.26654372 -0.73420703 -0.3820154 -0.5203236
0.70169806 0.40729952 0.83318037 0.61442107 0.7430937 0.90488905 -0.111082174 0.6145482
-0.07731609 -0.49796033 -0.59244365 -0.41105694 0.4897872 0.9771765 -0.26545393 0.59820104
-0.25311205 -0.2596438 -0.6255155 -0.4648419 0.03230971 -0.7476334 -0.8980614 0.008316501
0.0993659 0.27073133 -0.026851729 0.97080994 0.60741836 -0.18309015 0.48975146 0.62597185
0.29698026 0.6886437 0.28363666 0.9163298 0.10295783 -1.0863593 0.14002995 0.72135687
0.82866055 0.934687 0.17598455 0.96742463 0.5803987 0.82484376 -0.18333456 0.43980417
-0.036866367 0.09044546 -0.20709506 0.7098417 0.23156852 -0.7491806 0.35829234 0.14375353
0.08924455 -0.9577505 -0.7826978 -0.69658214 0.6870135 0.9843157 0.7716681 0.8684742
0.28354287 -0.805992 -0.10048049 -0.833712 -0.27087045 0.7922917 -0.30402267 0.027270436
-0.08855349 -0.71305686 -0.071665466 -0.21555364 0.103943825 -1.0916458 0.8531222 -0.5081925
-0.07607468 -0.018849721 0.59872675 -0.66258013 0.3161057 0.5553255 -0.24157089 1.0234601
00000000: a613 e63e ab26 243d 4d98 d23e 1c65 ff3e
00000010: 6719 6a3f 8e60 92be a247 113f 0a08 b5be
00000020: 098a 393f 587e 653f 1aae 6c3e 88f2 3bbf
00000030: b7ea 8f3d 1169 8bbf e975 5e3d 6929 53be
00000040: 36ee 21bf 1d45 08bf dc60 9d3d efa9 893f
00000050: 2f8c 45bf 8720 af3d e03b 0fbd 77a2 29bf
00000060: 1239 a0be 89e8 8fbe 6775 5dbd 1b72 10be
00000070: a33e 793f 35a0 fabe fc44 cd3e 94ee cf3e
00000080: 2aca 4c3f ba83 d6be 1b75 9cbc 89c4 883f
00000090: 2854 9ebe def1 1e3f e893 303f 512f a2be
000000a0: aafc f73e 6755 883f c07a a13d 61cf 89bf
000000b0: d732 333f de22 09bf 381c dd3e 3717 b23e
000000c0: 5dd7 0d3e 1fd2 84be f955 edbd 00d1 c83e
000000d0: ed50 313e bbd6 21bf a116 53be f421 8f3f
000000e0: d59c 123f 78a3 1d3f 7b7b 883e 256f 9dbf
000000f0: 8ba0 72bf e779 43bf fb37 1f3f 66a9 193f
00000100: 766e 6d3e 55b0 aa3e 2637 e03e 460d 2cbf
00000110: fd5c 613e ffc3 a5bf 292e 17be eb0d cc3e
00000120: d849 c0bd 802e 7abc fc3a 4c3d 5f40 81bf
00000130: 70dd 383f 9721 3cbf 330d 703f 1c66 653f
00000140: b040 e43d 9472 8bbf 5125 4f3f 3ea3 cf3e
00000150: 1dfb 643f aabd 713f c57e eebe e154 7f3f
00000160: 81fe 313d 5449 81bf 3d5f 493f 18fb 073f
00000170: 0d37 49be 5123 083f 72fb 12be b044 8a3f
00000180: 8108 a2bc 8913 2f3f 761b 683f 50c2 223f
00000190: 7aea c4bd 1e28 79be df5d d03e 5ab8 783f
000001a0: 3d50 2cbd 3da0 0abf 12e2 2abf 3696 1fbf
000001b0: bb6f d9be 36fd 8bbe 1218 013f 98c4 8abe
000001c0: 6662 9a3e 40c6 54bf b6ca d0be 390a 3f3d
000001d0: 0452 6e3f eac6 61be 6719 bc3c 5d48 81bf
000001e0: c510 103f 0603 e9bd 980e 4d3e 3432 adbe
000001f0: 28f5 25be c6eb 673f 3841 9f3d 6fe2 87bf
00000200: cebb 00bf 2c6c e2be b45c e83e 1196 2fbe
00000210: 26c2 853e bdbf 4ebf 6017 8d3d 0404 2dbe
00000220: 59df 2d3e cc43 62bf 4135 27bf b01b 5b3d
00000230: 4f3f bfbe 1056 3bbe 8768 e23e e7b0 aabe
00000240: 71ed 75bf c600 99bc d3ef d33e e2a6 03bf
00000250: 1268 103f d925 733d 6c4c 0f3f 4321 063e
00000260: 205c 04bd c300 0dbf 0051 453c 60c2 a4bd
00000270: 505b 423f ff6b 993f d866 513f 8f13 dcbe
00000280: 48b3 c73c 2bb7 60bf 4a9f a03e a647 93bc
00000290: 6b78 883e fef4 3bbf 8697 c3be ed33 05bf
000002a0: 7ca2 333f 9089 d03e 4f4b 553f b34a 1d3f
000002b0: 643b 3e3f cfa6 673f 0d7f e3bd 0853 1d3f
000002c0: e657 9ebd a8f4 febe 63aa 17bf 0e76 d2be
000002d0: 63c5 fa3e 3d28 7a3f 94e9 87be b423 193f
000002e0: e797 81be 08f0 84be c921 20bf c2ff edbe
000002f0: 3057 043d e764 3fbf 5ae7 65bf ef41 083c
00000300: 5980 cb3d 4c9d 8a3e 28f8 dbbc 0087 783f
00000310: c57f 1b3f fc7b 3bbe b4c0 fa3e b13f 203f
00000320: cc0d 983e f44a 303f d338 913e 9794 6a3f
00000330: 8edb d23d d20d 8bbf 0364 0f3e d8aa 383f
00000340: 1923 543f a647 6f3f 4b35 343e 24a9 773f
00000350: 0295 143f f628 533f 0ebc 3bbe 032e e13e
00000360: 3001 17bd 783b b93d ba10 54be 30b8 353f
00000370: 4c20 6d3e 4dca 3fbf 1872 b73e 2034 133e
00000380: d9c5 b63d 232f 75bf e25e 48bf 3553 32bf
00000390: 1ee0 2f3f 1dfc 7b3f 0a8c 453f 5354 5e3f
000003a0: 882c 913e 7e55 4ebf b7c8 cdbd 266e 55bf
000003b0: 88af 8abe a1d3 4a3f dca8 9bbe 4066 df3c
000003c0: 885b b5bd e58a 36bf 58c5 92bd 18ba 5cbe
000003d0: 80e0 d43d 0dbb 8bbf 3766 5a3f e718 02bf
000003e0: 0bcd 9bbd bb6a 9abc 2846 193f da9e 29bf
000003f0: 9bd8 a13e d029 0e3f 5c5e 77be be00 833f

l1.bias f4 [256]
1.231766 1.5044019 -0.9454106 1.0204357 1.2520081 0.949166 0.38130683 1.4664872
-0.51669085 -0.1830947 0.9381605 -0.35538796 1.1538409 1.3793031 -0.4861139 -0.7939633
1.4555466 0.48878023 0.02925714 1.2532883 0.35266158 0.16116513 -0.16055174 1.3771237
1.4457401 1.311959 0.8801339 0.41332364 1.5976173 -0.10830834 0.831288 -1.1438261
1.5738896 -0.77493274 0.22597001 1.3987503 -0.50405353 0.7622575 -0.07384745 0.84409374
-0.04875782 1.2448732 0.5135926 -1.1098357 0.25791466 -0.92986834 0.91439956 0.39107576
0.8669225 1.3962727 1.6181412 1.492603 0.51399386 -0.2801191 1.5531355 -0.58914876
1.0142083 1.5088913 1.272184 0.21901512 1.595265 1.6351247 -1.4935707 0.42727175
-0.14566118 1.3626555 -0.19628435 -0.3457922 -0.17810786 -0.6261852 -0.14279425 -0.7928024
1.1607877 -0.7312042 1.0934885 1.4964999 -0.33418664 -0.68598676 -0.3720769 -0.38298133
0.16512771 1.394247 0.87256867 -0.32805884 -1.436372 1.4959136 -0.48000157 1.004123
0.46188292 -0.38413742 0.3250695 1.1843207 -0.25040647 -0.12804997 -0.0993362 1.0072228
1.2713363 0.9018019 1.5590193 0.80167687 0.98066443 0.9274818 -0.051339474 1.3289918
-0.43088594 0.76639086 0.24523163 0.8113693 -0.6893566 1.0307367 -0.250675 1.5377935
-0.012018101 0.72849256 0.40831736 -0.72340715 0.99718624 0.81708795 1.1901325 -0.21556199
0.88912493 -0.24110106 0.16570051 0.992804 1.7658005 0.010064825 0.6749077 1.1156921
1.239481 1.6299193 1.1194354 1.4436792 1.3157223 -0.9900938 0.7330743 1.4644482
0.40475342 0.5510888 1.1805935 -0.025285423 -0.16485876 -0.1893714 0.87775546 1.1084986
0.98500866 -0.55355257 -0.013269682 0.7069373 -1.181992 0.006752689 1.5753585 0.9792559
-0.084123634 0.544403 1.2797307 -0.89614713 0.6716518 -0.29424444 0.77774656 -1.0696282
-0.69084406 -0.45357063 -0.30881265 -0.54966533 1.0780743 0.463961 -1.1562946 1.3974981
-0.8995851 0.85235614 -0.6435789 0.79129934 0.04639872 1.4992012 0.6571101 1.0064397
0.7585665 1.4074407 -0.4125361 0.7639404 -0.5419711 -0.69773364 -0.102807045 -1.0723499
0.66845495 -0.23273313 1.1418004 1.5736505 -0.11291015 0.3345122 -1.3247323 -0.34277138
-0.7047816 1.1090375 0.5347667 -0.36118272 0.1236175 0.3273508 1.5641696 0.87802625
-0.23080963 1.4885608 -0.2636124 1.6456594 0.9641633 -0.51020396 0.79860246 -0.5335293
0.7884288 1.0817145 -0.106512524 1.5795147 -1.1270449 1.2273567 1.570667 1.2591469
-0.88905853 0.5573907 1.521812 -0.9382563 -0.21768552 -1.2417341 -0.8945567 -1.1580405
-0.6185804 -0.36859357 0.8695136 1.6942524 -0.3609973 -0.70590186 -0.21102953 -0.12398133
0.7819838 1.209509 0.5981562 1.0685861 -0.44452414 -0.10109824 0.2044292 -0.48293132
1.3032584 0.6497361 1.4756542 1.0316919 0.74712366 1.650222 1.4058039 0.4332523
-0.14301914 0.6789632 0.32309812 1.011012 -0.66772044 1.3423874 -0.9578017 0.3933024
00000000: 82aa 9d3f 3e90 c03f 6e06 72bf a39d 823f
00000010: cd41 a03f 8bfc 723f a63a c33e dab5 bb3f
00000020: da45 04bf 2d7d 3bbe 492b 703f 69f5 b5be
00000030: 0fb1 933f 018d b03f ece3 f8be 2e41 4bbf
00000040: 5a4f ba3f 6741 fa3e abac ef3c c06b a03f
00000050: 0f90 b43e 7908 253e ad67 24be 9745 b03f
00000060: 030e b93f 46ee a73f 7550 613f 289f d33e
00000070: b97e cc3f c3d0 ddbd 4acf 543f e568 92bf
00000080: 3775 c93f fe61 46bf af64 673e 400a b33f
00000090: a709 01bf 4f23 433f 553d 97bd 8716 583f
000000a0: 48b6 47bd 0158 9f3f ce7a 033f 190f 8ebf
000000b0: 640d 843e da0b 6ebf 1716 6a3f 153b c83e
000000c0: a2ee 5d3f 10b9 b23f 401f cf3f 9d0d bf3f
000000d0: 1a95 033f c56b 8fbe 25cd c63f 74d2 16bf
000000e0: 94d1 813f 5a23 c13f edd6 a23f 8045 603e
000000f0: a531 cc3f c44b d13f 532d bfbf 5dc3 da3e
00000100: 3428 15be 7f6b ae3f c4fe 48be ad0b b1be
00000110: e861 36be ac4d 20bf a838 12be 19f5 4abf
00000120: b194 943f 3330 3bbf 6ef7 8b3f 4f8d bf3f
00000130: 831a abbe d49c 2fbf dd80 bebe 2116 c4be
00000140: 3d17 293e b076 b23f a960 5f3f 54f7 a7be
00000150: 0adb b7bf 197a bf3f c4c2 f5be 1a87 803f
00000160: eb7b ec3e a9ad c4be 826f a63e d297 973f
00000170: 4735 80be 881f 03be c770 cbbd adec 803f
00000180: 26bb a23f 7ddc 663f f28d c73f b23a 4d3f
00000190: d30c 7b3f 726f 6d3f 5749 52bd 671c aa3f
000001a0: 159d dcbe 3132 443f 001e 7b3e e6b5 4f3f
000001b0: ad79 30bf 2eef 833f 7958 80be 6bd6 c43f
000001c0: 92e7 44bc 7d7e 3a3f f90e d13e 3631 39bf
000001d0: 9947 7f3f ad2c 513f 4356 983f 48bc 5cbe
000001e0: b19d 633f 32e3 76be 65ad 293e 6728 7e3f
000001f0: c005 e23f f0e6 243c c0c6 2c3f 00cf 8e3f
00000200: 50a7 9e3f 32a1 d03f a949 8f3f 7bca b83f
00000210: 9769 a83f ca76 7dbf c2aa 3b3f 0a73 bb3f
00000220: d73b cf3e 2814 0d3f b01d 973f 6023 cfbc
00000230: bcd0 28be 94ea 41be 95b4 603f 48e3 8d3f
00000240: 8729 7c3f 9fb5 0dbf 1569 59bc d8f9 343f
00000250: 844b 97bf a945 dd3b 59a5 c93f 84b0 7a3f
00000260: 0349 acbd ff5d 0b3f 37ce a33f e669 65bf
00000270: 5ff1 2b3f 35a7 96be 661a 473f 94e9 88bf
00000280: 28db 30bf 693a e8be b11c 9ebe deb6 0cbf
00000290: 57fe 893f 4c8c ed3e 7601 94bf 38e1 b23f
000002a0: 364b 66bf 0334 5a3f 96c1 24bf 9892 4a3f
000002b0: 960c 3e3d d3e5 bf3f 5e38 283f 04d3 803f
000002c0: 6a31 423f 0427 b43f ef37 d3be 9991 433f
000002d0: 9ebe 0abf ac9e 32bf 808c d2bd c342 89bf
000002e0: dd1f 2b3f 9851 6ebe 8426 923f 616d c93f
000002f0: 703d e7bd 2f45 ab3e d490 a9bf bb7f afbe
00000300: 916c 34bf f1f4 8d3f 78e6 083f f1ec b8be
00000310: 2c2b fd3d 869a a73e b636 c83f 54c6 603f
00000320: 5c59 6cbe 2989 be3f 34f8 86be f8a4 d23f
00000330: 68d3 763f ba9c 02bf 3671 4c3f 6095 08bf
00000340: 78d6 493f 9f75 8a3f 3d23 dabd 8a2d ca3f
00000350: 0243 90bf 061a 9d3f 9e0b c93f ba2b a13f
00000360: 5799 63bf 28b1 0e3f bcca c23f 9131 70bf
00000370: f4e8 5ebe 25f1 9ebf ab01 65bf ac3a 94bf
00000380: 495b 1ebf 4cb8 bcbe 7198 5e3f 43dd d83f
00000390: a3d4 b8be fcb5 34bf 2018 58be ece9 fdbd
000003a0: 1730 483f 31d1 9a3f c420 193f 6ec7 883f
000003b0: ab98 e3be 980c cfbd e355 513e c642 f7be
000003c0: 2cd1 a63f 1b55 263f 3de2 bc3f 7b0e 843f
000003d0: 7f43 3f3f 793a d33f 62f1 b33f 3fd3 dd3e
000003e0: 9c73 12be 88d0 2d3f 1e6d a53e d768 813f
000003f0: baef 2abf 5ad3 ab3f 7e32 75bf ef5e c93e

l2.weight f4 [256, 256]
0.23357329 0.09740229 -0.79372865 0.23644507 -0.0029297057 0.40359053 0.28610206 0.99314183
-0.04778543 -0.14884071 -0.04246688 -0.044008687 0.9349189 1.0540688 -0.46464515 -0.65943396
0.26901317 -0.09328608 -0.24245077 0.25380024 -0.2706361 0.15661551 -0.036521245 0.21268073
0.85984343 0.41904008 0.46436387 -0.1230442 0.07563722 0.042230945 -0.09677591 -0.9684972
0.21663979 -0.6758491 0.25038993 0.37930992 0.040925093 0.44315168 -0.06465502 -0.084619045
-0.042398643 0.08199685 -0.08729679 -0.25289258 0.20975435 -0.5723891 0.0027863933 -0.09137068
0.07060354 0.11048624 0.7329782 0.083001554 0.58436215 -0.0475005 1.2297829 -0.80571276
0.3884478 0.23936027 0.09891246 0.18117769 0.28731194 0.5038642 0.14257953 0.26936656
0.006230563 0.29535872 -0.20425516 0.019150816 -0.0576155 -0.054140262 -0.047764383 -0.9174844
0.12210642 -0.78825307 0.14372736 0.249233 -0.004113205 0.058769964 -0.42298526 -0.38945922
0.2021738 0.30685776 0.3107252 0.032668166 -0.8771846 0.081466444 -0.3673738 0.017349493
0.47289 0.048152536 -0.2793713 0.100385316 0.028288499 0.027591616 -0.0074502425 0.09615461
0.32637575 0.124225765 0.23932378 -0.029662218 -0.020723466 -0.053253245 -0.08808778 0.17578226
-0.37073016 -0.07243323 -0.280106 -0.00038852065 0.0013840497 0.08048822 -0.15505819 0.28528005
-0.023926 -0.16493087 -0.18509518 -0.58507645 0.43432522 1.1296952 0.104556635 0.0329312
0.79244787 -0.04488349 0.20730488 0.11761262 0.64231795 0.05094642 -0.07106459 -0.034959655
0.104535855 0.28467444 0.2670388 0.23434423 0.115749925 -1.336079 0.49816135 0.23064841
0.06767273 0.39045462 0.064695664 0.050077885 -0.04822804 0.04279028 -0.04582633 0.043377247
0.06761873 -0.054627605 0.0257788 -0.23413861 -0.8432298 0.0654176 0.8282881 0.798845
-0.36006868 0.39155334 0.19124343 -0.007404035 0.4718322 -0.0049549565 -0.29347682 -0.93931496
0.039369747 0.018033087 0.0075910166 -0.628448 0.41088977 0.2708511 -0.3200314 0.10946149
-0.82710373 0.0049063815 -0.03935068 0.042458244 0.30965602 0.260809 0.11588263 0.034482013
1.0944144 0.07782461 -0.022709183 0.25196376 0.034892388 0.0021930337 0.0021447465 -0.6832295
0.31004083 -0.0055918023 0.08857057 0.14129916 0.03891408 0.26330444 -0.9092259 -0.022964403
-0.0006124824 0.037118863 -0.2405911 -0.046034 0.08304394 0.30129525 0.13155644 0.18248488
-0.3083959 1.0946074 -0.15373819 0.18785927 -0.016904911 -0.68265975 0.19726247 -0.0038632303
-0.070480734 0.04357201 -0.02115309 0.16728522 -1.4941471 0.13741714 0.1703594 0.38141584
-0.750561 -0.16792609 0.09745923 -0.8444287 -0.05669553 -0.994096 -0.5832135 -0.5960898
-0.58292603 0.009353191 0.11037996 0.5561983 -0.02002696 0.006443508 -0.015841931 -0.13928413
-0.058729198 0.9617028 0.4936902 0.040284894 0.042930424 0.061882235 -0.041501336 -0.576765
0.022991948 -0.17809199 0.7921019 0.14995363 -0.24324468 0.1998239 0.9906691 0.11123245
-0.037604943 0.43286678 -0.3092078 0.7989167 -0.24790345 0.13938892 -1.044143 -0.24141364
00000000: d62d 6f3e da7a c73d cd31 4bbf a81e 723e
00000010: 4e00 40bb 6ba3 ce3e f87b 923e 8b3e 7e3f
00000020: a8ba 43bd b369 18be c0f1 2dbd 7442 34bd
00000030: d856 6f3f baeb 863f f8e5 edbe aad0 28bf
00000040: 18bc 893e c60c bfbd 0445 78be 1bf2 813e
00000050: d190 8abe d15f 203e 4d97 15bd fac8 593e
00000060: b31e 5c3f 6c8c d63e 1ac1 ed3e 99fe fbbd
00000070: b0e7 9a3d 5bfa 2c3d 7332 c6bd 6fef 77bf
00000080: d2d6 5d3e 7204 2dbf 1c33 803e e934 c23e
00000090: 12a1 273d c7e4 e23e da69 84bd c04c adbd
000000a0: 33aa 2dbd f7ed a73d a9c8 b2bd 237b 81be
000000b0: d8c9 563e 1888 12bf ec9b 363b 8d20 bbbd
000000c0: 9798 903d 9c46 e23d 76a4 3b3f b8fc a93d
000000d0: c298 153f e28f 42bd 8769 9d3f 3143 4ebf
000000e0: a1e2 c63e dc1a 753e 9e92 ca3d a586 393e
000000f0: 8d1a 933e 3ffd 003f 5e00 123e 6aea 893e
00000100: c029 cc3b 4239 973e 4428 51be 2ce2 9c3c
00000110: 3bfe 6bbd 2ec2 5dbd 96a4 43bd 42e0 6abf
00000120: ee12 fa3d f4ca 49bf 442d 133e f036 7f3e
00000130: 10c8 86bb c6b8 703d 8691 d8be 3367 c7be
00000140: a606 4f3e 761c 9d3e 6017 9f3e 0ecf 053d
00000150: 2c8f 60bf e1d7 a63d 6b18 bcbe 8620 8e3c
00000160: a31e f23e 983b 453d c109 8fbe d196 cd3d
00000170: 48bd e73c d007 e23c 2a21 f4bb b5ec c43d
00000180: b91a a73e 146a fe3d 4b11 753e 2efe f2bc
00000190: 42c4 a9bc 1320 5abd 5e67 b4bd 4400 343e
000001a0: 58d0 bdbe e057 94bd 0e6a 8fbe 5cb2 cbb9
000001b0: 0069 b53a 02d7 a43d 93c7 1ebe 3a10 923e
000001c0: 7500 c4bc a3e3 28be 9789 3dbe 92c7 15bf
000001d0: e05f de3e da99 903f ca21 d63d dee2 063d
000001e0: dddd 4a3f c0d7 37bd bb47 543e e3de f03d
000001f0: f36e 243f 31ad 503d 508a 91bd db31 0fbd
00000200: e516 d63d d9c0 913e 4fb9 883e eff7 6f3e
00000210: 4c0e ed3d a304 abbf 010f ff3e 192f 6c3e
00000220: 0098 8a3d abe9 c73e 297f 843d 781e 4d3d
00000230: c48a 45bd dc44 2f3d 64b4 3bbd 57ac 313d
00000240: b07b 8a3d 32c1 5fbd 102e d33c 08c2 6fbe
00000250: e8dd 57bf aaf9 853d b00a 543f 1b81 4c3f
00000260: ec5a b8be ae79 c83e 51d5 433e 8c9d f2bb
00000270: fd93 f13e 305d a2bb 9842 96be f276 70bf
00000280: 2c42 213d 20ba 933c 10be f83b f8e1 20bf
00000290: 2560 d23e ffac 8a3e 28db a3be 582d e03d
000002a0: 12bd 53bf b6c5 a03b 2e2e 21bd b2e8 2d3d
000002b0: 3c8b 9e3e c288 853e df53 ed3d 033d 0d3d
000002c0: c515 8c3f 8262 9f3d 9c08 babc 6501 813e
000002d0: 52eb 0e3d 00b9 0f3b e08e 0c3b 21e8 2ebf
000002e0: acbd 9e3e 703b b7bb 7d64 b53d bab0 103e
000002f0: 5f64 1f3d d7cf 863e 07c3 68bf d81f bcbc
00000300: 008f 20ba f309 183d 835d 76be 268e 3cbd
00000310: f112 aa3d 5f43 9a3e bbb6 063e 51dd 3a3e
00000320: 11e6 9dbe 181c 8c3f 8b6d 1dbe 2e5e 403e
00000330: 2b7c 8abc cac2 2ebf 2cff 493e 402e 7dbb
00000340: 3458 90bd 9078 323d 3f49 adbc d14c 2b3e
00000350: 3640 bfbf 14b7 0c3e b272 2e3e f048 c33e
00000360: c424 40bf d1f4 2bbe b498 c73d 7b2c 58bf
00000370: 9239 68bd 137d 7ebf 7b4d 15bf 5799 18bf
00000380: a43a 15bf 203e 193c e30e e23d 0363 0e3f
00000390: 940f a4bc 1024 d33b f0c6 81bc 80a0 0ebe
000003a0: 078e 70bd 2832 763f f6c4 fc3e c601 253d
000003b0: d0d7 2f3d 3a78 7d3d 4efd 29bd dfa6 13bf
000003c0: 9c59 bc3c bf5d 36be 31c7 4a3f 728d 193e
000003d0: 2215 79be a39e 4c3e 7d9c 7d3f d7cd e33d
000003e0: a407 1abd b7a0 dd3e 7c50 9ebe ce85 4c3f
000003f0: 67da 7dbe f8bb 0e3e 7aa6 85bf 2335 77be

l2.bias f4 [256]
0.34550223 0.015719812 -0.0490296 0.70174474 -0.048692413 -0.009515104 -0.03638093 0.79172003
0.90485376 0.03146111 0.92651236 0.9679245 0.5096569 0.046673167 0.021732755 0.33963835
-0.008651282 -0.022473507 0.5171961 0.97609353 -0.056459606 -0.32586187 -0.006631339 0.90093964
-0.045842223 -0.00879371 0.49750003 0.052593842 0.6825042 -0.019190822 0.1968863 0.06007483
-0.027668962 0.8411832 -0.08460985 0.82184535 0.91471505 0.9183211 -0.19315766 0.29922736
-0.033042558 0.061988086 0.65668464 -0.052543823 0.49174303 -0.04944157 0.8628112 0.032536022
0.17969058 0.79189456 -0.01071658 0.6294892 -0.060946763 0.59831697 -0.029274603 0.61051774
0.0031221465 0.92109835 -0.011704646 -0.058408126 -0.040159874 -0.04607532 0.32417992 0.38621077
-0.059663627 0.8333653 0.33019924 -0.035976823 -0.005427791 -0.077696934 0.9098283 -0.030916616
0.8881099 -0.083622426 0.8916374 -0.010553151 0.016073413 -0.025228987 0.46818265 0.76817
0.690101 0.6966827 -0.044147275 -0.018388977 0.033417773 -0.004376065 -0.06480507 0.013261586
0.79203254 0.0008040354 0.04621075 0.59053814 0.029528838 0.55124944 0.55623376 0.029268637
0.53907615 0.06801806 -0.048826963 0.014330151 0.9381158 -0.056748834 -0.04210916 0.94580305
0.49296844 -0.02346035 -0.04143912 0.09403972 -0.05303704 0.22845098 -0.06292846 -0.035284325
-0.055592816 0.020577729 -0.016355276 0.8223643 0.9130524 0.21116333 0.7656975 0.3535997
-0.016499233 -0.0018161999 0.045586944 0.7843788 0.10497677 0.012209628 0.98688805 0.59926283
0.60777766 -0.024284929 0.060408294 0.29271248 0.92533064 0.16996142 0.19623245 0.89457154
0.30103156 0.51158696 0.28234774 -0.06533483 0.02765825 -0.008685462 -0.00035806745 0.8997594
0.66994643 0.59508264 -0.056722958 0.023128813 0.5814422 0.021582596 -0.025147986 0.94272274
0.9596198 0.85844135 0.72170526 0.50197595 0.91529113 0.81525123 0.8347929 0.5096481
0.52946335 0.88361114 0.76379037 0.034857094 -0.03163552 -0.010733922 -0.0743111 0.031268902
-0.025023106 -0.06901366 0.63402164 0.37111396 -0.048172843 0.9448657 -0.04626789 0.9136991
0.84268963 -0.03077212 0.8727345 0.018869407 0.03492713 0.35852224 0.8656807 0.8673405
0.5695974 -0.011055984 -0.034857523 0.0585751 0.6285242 0.4503461 0.8159139 0.81508017
0.85433185 0.9545171 0.44483265 0.75454676 0.8130174 0.9445204 -0.011923239 0.07056098
0.31816873 0.3298128 0.87399477 -0.049605805 0.88475424 -0.04117822 0.24090672 0.8663289
0.76437515 -0.028855719 0.16220745 0.8752273 0.16011967 0.74698365 -0.016364409 -0.02899952
0.82363665 -0.0035087466 0.17825331 -0.04870657 0.5313062 0.28229958 0.010414241 0.04547252
0.8255682 0.00012294199 0.029257312 -0.058722384 0.9124574 0.8565361 -0.03389387 -0.03183437
0.13756761 0.9591188 0.916062 0.8621232 0.3160419 0.33873835 -0.09745761 -0.036853146
0.049154676 0.9058869 0.34265217 0.8521432 0.8275992 0.6831806 0.839726 0.97166604
0.24399307 0.033145335 -0.00923194 -0.012443385 0.39641872 0.035562366 0.8623782 0.90873736
00000000: abe5 b03e d6c6 803c 43d3 48bd 8ba5 333f
00000010: b271 47bd 3de5 1bbc 2c04 15bd 2aae 4a3f
00000020: 7fa4 673f 5ddd 003d ea2f 6d3f e6c9 773f
00000030: e078 023f 5d2c 3f3d e408 b23c 14e5 ad3e
00000040: 1bbe 0dbc 5c1a b8bc f766 043f 44e1 793f
00000050: 3042 67bd 5ed7 a6be b44b d9bb fba3 663f
00000060: 0ec5 3bbd 7e13 10bc 53b8 fe3e a46c 573d
00000070: 98b8 2e3f 1236 9dbc 909c 493e 0611 763d
00000080: 05aa e2bc c857 573f ee47 adbd 7564 523f
00000090: c42a 6a3f 1717 6b3f 1fcb 45be 5434 993e
000000a0: a257 07bd 38e7 7d3d 7c1c 283f 3138 57bd
000000b0: bec5 fb3e 3e83 4abd 32e1 5c3f 7e44 053d
000000c0: cf00 383e 9ab9 4a3f 9894 2fbc 3426 213f
000000d0: 50a3 79bd 4d2b 193f 4bd1 efbc e44a 1c3f
000000e0: ed9c 4c3b 1acd 6b3f d8c4 3fbc 5c3d 6fbd
000000f0: ae7e 24bd 7ab9 3cbd e9fa a53e 6bbd c53e
00000100: d961 74bd 6e57 553f e00f a93e 6f5c 13bd
00000110: 9cdb b1bb 921f 9fbd 82ea 683f d844 fdbc
00000120: 2c5b 633f 3c42 abbd 5942 643f 20e7 2cbc
00000130: 64ac 833c 05ad cebc a3b5 ef3e caa6 443f
00000140: 76aa 303f cc59 323f c6d3 34bd 7ba4 96bc
00000150: 13e1 083d 1865 8fbb 85b8 84bd 2047 593c
00000160: a5c2 4a3f e7c5 523a 7c47 3d3d 822d 173f
00000170: 76e6 f13c af1e 0d3f 5665 0e3f c8c4 ef3c
00000180: e500 0a3f 0d4d 8b3d c8fe 47bd 02c9 6a3c
00000190: 5b28 703f 7771 68bd a87a 2cbd 2620 723f
000001a0: 5c66 fc3e ec2f c0bc 11bc 29bd e697 c03d
000001b0: 5e3d 59bd 0eef 693e a3e0 80bd 4c86 10bd
000001c0: 4bb5 63bd a092 a83c 80fb 85bc 7786 523f
000001d0: cdbd 693f 333b 583e c004 443f 050b b53e
000001e0: 6629 87bc 8e0d eeba 60b9 3a3d 0dcd 483f
000001f0: 10fe d63d e40a 483c b2a4 7c3f 4a69 193f
00000200: 5197 1b3f 30f1 c6bc b06e 773d 69de 953e
00000210: 78e2 6c3f 5e0a 2e3e 29f1 483e a402 653f
00000220: cf20 9a3e 5df7 023f e28f 903e 44ce 85bd
00000230: 8e93 e23c 784d 0ebc 00bb bbb9 a256 663f
00000240: 9c81 2b3f 5657 183f 5556 68bd a378 bd3c
00000250: 65d9 143f fccd b03c 2603 cebc 4756 713f
00000260: a5a9 753f d0c2 5b3f adc1 383f 7f81 003f
00000270: 8550 6a3f 4eb4 503f fdb4 553f 4c78 023f
00000280: e98a 073f 5734 623f c487 433f 50c6 0e3d
00000290: 3f94 01bd 55dd 2fbc 6b30 98bd d213 003d
000002a0: 42fd ccbc 0957 8dbd 3e4f 223f a602 be3e
000002b0: e350 45bd b8e2 713f 6683 3dbd 2fe8 693f
000002c0: 82ba 573f d015 fcbc 876b 5f3f 0494 9a3c
000002d0: c00f 0f3d 3a90 b73e 409d 5d3f 070a 5e3f
000002e0: 23d1 113f 2824 35bc c3c6 0ebd 72ec 6f3d
000002f0: f6e6 203f c493 e63e bcdf 503f 18a9 503f
00000300: 7eb5 5a3f 3c5b 743f 1bc1 e33e fa29 413f
00000310: e921 503f 17cc 713f b059 43bc 4682 903d
00000320: 03e7 a23e 39dd a83e 1fbe 5f3f 752f 4bbd
00000330: 417f 623f 7eaa 28bd 40b0 763e bbc7 5d3f
00000340: 17ae 433f d462 ecbc b619 263e e50e 603f
00000350: 69f6 233e 523a 3f3f a70e 86bc 6790 edbc
00000360: dad9 523f 00f3 65bb 0988 363e 8a80 47bd
00000370: af03 083f 9289 903e 7ea0 2a3c 6541 3a3d
00000380: 7058 533f fde9 0039 08ad ef3c e286 70bd
00000390: cf96 693f f345 5b3f 4cd4 0abd c264 02bd
000003a0: 86de 0c3e cf88 753f 0a83 6a3f 1bb4 5c3f
000003b0: 3ed0 a13e 1d6f ad3e db97 c7bd 53f3 16bd
000003c0: 6a56 493d 34e8 673f 1b70 af3e 0f26 5a3f
000003d0: 8bdd 533f ece4 2e3f 48f8 563f 1bbf 783f
000003e0: 52d9 793e 67c3 073d 9041 17bc 57df 4bbc
000003f0: 65f7 ca3e d8a9 113d d1c4 5c3f 03a3 683f

l3.weight f4 [3, 256]
0.15591991 0.011632151 0.03765853 0.22368695 0.006886376 -0.20539935 0.05381389 0.7809927
0.4518351 0.025548223 0.70032334 0.7293375 0.4808561 -0.046131894 0.009913512 -0.31120715
-0.03280281 -0.01584284 -0.37544495 0.74960643 -0.015848488 -0.54697645 0.025228268 0.3496629
0.053103827 -0.0058479873 0.1986777 0.058784805 0.9254457 -0.047473237 -0.25811064 -0.04084661
0.04368093 0.66969293 0.028621124 0.37509403 0.43402824 0.5443855 -0.6088877 0.2049002
-0.015749447 -0.01862853 0.29950437 -0.00869282 0.17801325 -0.053951338 0.92807496 0.03842607
-0.010656291 0.29039174 -0.04310543 0.1993705 0.029427722 0.51876885 0.06068631 0.35761368
0.046349186 0.5384993 -0.06182445 -0.03933169 0.038917042 0.022673517 -0.10102568 -0.23086864
0.04358612 0.4586057 -0.056143187 -0.04314779 0.0092436895 0.0049801096 0.75309587 0.0049700886
0.38835317 0.013418965 0.64792675 -0.030234955 -0.04098878 0.028179089 0.13580352 1.0458814
0.567366 0.75850457 0.055930562 0.02942097 0.018671926 -0.026875038 -0.029447626 -0.036326356
1.1429284 -0.012479438 -0.009910107 0.5310278 0.050009336 -0.34309092 0.21416599 0.026274167
0.1474753 -0.7564045 -0.029219717 -0.02638078 0.75409037 0.05022761 -0.024444655 0.5260247
0.15624216 0.0520486 0.014991524 0.069922976 0.016596723 -0.048818365 0.030653458 -0.049340345
0.011709595 -0.007344877 0.019680828 0.39982748 0.4947592 0.18793873 1.113354 0.1702202
0.054761503 -0.01240906 0.027184641 0.32797116 -0.2093601 0.042690113 0.5117856 0.55604804
0.19318187 0.042000197 0.037838973 0.053411447 0.7048929 0.09994331 -0.61115617 0.8674763
-0.2156717 0.28960428 0.13472109 0.027579017 0.01752893 -0.031001464 -0.013442285 0.5624153
0.76981044 0.46421534 0.03281594 -0.002842313 0.62045276 0.004469149 0.056250278 0.502863
0.74390167 0.69546103 0.70642614 0.55065715 0.6121044 0.5217157 0.40706086 0.181187
0.29848623 1.2584829 0.5245528 -0.048674747 0.029599672 -0.04326129 -0.0344835 0.0526255
0.027957574 -0.23072097 0.33594963 -0.6258488 0.015940035 0.65156674 -0.04373889 0.69259536
0.37558934 -0.0059066936 1.0510472 0.06016203 -0.047122642 -0.14465341 0.41474313 0.6365775
0.6144945 0.014284157 -0.025872825 0.046443753 0.7006679 -0.06058639 0.57409304 0.5310982
0.4892064 0.6520209 0.1982572 0.91242075 0.3603646 0.770372 0.0047735698 -0.117350586
0.06115458 -0.03816682 0.5658194 0.024369027 0.6440234 0.054499745 -0.48497483 0.4607586
0.30205348 -0.01324904 -0.029163904 0.38252327 -0.48061553 0.27903464 -0.0086737685 -0.055751033
0.45084375 0.03457141 -0.26751685 -0.039194778 0.13866879 0.14848122 0.013610802 0.021369603
0.5543571 0.04391491 -0.023458317 -0.03321626 0.59457946 0.49538192 -0.0075425655 -0.005061269
-0.105059154 0.54368377 0.88557327 0.86713487 -0.094769545 0.26078695 0.05680505 0.022333616
0.05339101 0.73836046 0.20971239 1.0322787 1.188209 0.5196422 0.8705897 0.6421034
-0.5230264 0.02176803 -0.029190004 0.21153118 -0.019249797 0.011460595 0.59062916 0.74180675
00000000: 78a9 1f3e c794 3e3c d53f 1a3d 310e 653e
00000010: 1ca7 e13b 3554 52be f46b 5c3d 23ef 473f
00000020: ee56 e73e 824a d13c 6448 333f ddb5 3a3f
00000030: c532 f63e ccf4 3cbd 486c 223c 8b56 9fbe
00000040: 3d5c 06bd d8c8 81bc 523a c0be 35e6 3f3f
00000050: b0d4 81bc a606 0cbf 83ab ce3c 0407 b33e
00000060: 6683 593d 79a0 bfbb 2b72 4b3e 56c8 703d
00000070: 02ea 6c3f 4c73 42bd 1427 84be c64e 27bd
00000080: c6ea 323d ff70 2b3f d976 ea3c 530c c03e
00000090: f338 de3e d95c 0b3f 10e0 1bbf 5cd1 513e
000000a0: fc04 81bc dc9a 98bc a358 993e 546c 0ebc
000000b0: 1b49 363e 14fc 5cbd 5296 6d3f a864 1d3d
000000c0: b997 2ebc 3aae 943e 528f 30bd c827 4c3e
000000d0: 6812 f13c 09ce 043f 3592 783d 2419 b73e
000000e0: a5d8 3d3d 17db 093f a23b 7dbd 441a 21bd
000000f0: 7a67 1f3d d0bd b93c 8de6 cebd d468 6cbe
00000100: 5c87 323d 5ece ea3e 66f6 65bd bdbb 30bd
00000110: d872 173c 3030 a33b e4ca 403f 20dc a23b
00000120: 3ad6 c63e 38db 5b3c 87de 253f 4caf f7bc
00000130: dae3 27bd d5d7 e63c 1410 0b3e 71df 853f
00000140: e63e 113f 5b2d 423f 7217 653d 3f04 f13c
00000150: def5 983c 0a29 dcbc 263c f1bc f2ca 14bd
00000160: 7a4b 923f 8f76 4cbc 005e 22bc 70f1 073f
00000170: 97d6 4c3d 9da9 afbe 544e 5b3e ec3c d73c
00000180: c403 173e baa3 41bf 305e efbc 811c d8bc
00000190: 110c 413f 77bb 4d3d 2840 c8bc 8ea9 063f
000001a0: f2fd 1f3e ea30 553d 029f 753c c733 8f3d
000001b0: daf5 873c c4f5 47bd f61c fb3c 1a19 4abd
000001c0: 9ad9 3f3c 4bad f0bb b039 a13c 30b6 cc3e
000001d0: 1451 fd3e 0373 403e 6282 8e3f 344e 2e3e
000001e0: 994d 603d 5f4f 4bbc 53b2 de3c d6eb a73e
000001f0: 7e62 56be d4db 2e3d 6204 033f 2a59 0e3f
00000200: 78d1 453e 6608 2c3d 0afd 1a3d f6c5 5a3d
00000210: dc73 343f 14af cc3d bb74 1cbf ed12 5e3f
00000220: 0bd9 5cbe 0347 943e 53f4 093e 64ed e13c
00000230: d598 8f3c c8f6 fdbc 083d 5cbc 73fa 0f3f
00000240: 4c12 453f a2ad ed3e 026a 063d 1946 3abb
00000250: fed5 1e3f f071 923b b166 663d a1bb 003f
00000260: 5770 3e3f bc09 323f 58d8 343f def7 0c3f
00000270: e0b2 1c3f 298f 053f 486a d03e 1689 393e
00000280: 30d3 983e f815 a13f 1849 063f 2c5f 47bd
00000290: 037b f23c c032 31bd 923e 0dbd d68d 573d
000002a0: 4807 e53c 1e42 6cbe 9701 ac3e a137 20bf
000002b0: ad94 823c 14cd 263f 8d27 33bd ee4d 313f
000002c0: 3f4d c03e f08c c1bb b788 863f 766c 763d
000002d0: ac03 41bd 0620 14be 3659 d43e bef6 223f
000002e0: 834f 1d3f 1908 6a3c 3ff3 d3bc ce3b 3e3d
000002f0: f95e 333f 6f29 78bd c3f7 123f 0df6 073f
00000300: 4379 fa3e d7ea 263f ef03 4b3e 6894 693f
00000310: b581 b83e 1937 453f 9b6b 9c3b 8155 f0bd
00000320: 3a7d 7a3d d054 1cbd 8ad9 103f 8ea1 c73c
00000330: b8de 243f 203b 5f3d 9f4e f8be 8de8 eb3e
00000340: c1a6 9a3e 8012 59bc 24e9 eebc 17da c33e
00000350: 3d13 f6be a1dd 8e3e 6c1c 0ebc 325b 64bd
00000360: fed4 e63e c09a 0d3d f8f7 88be b48a 20bd
00000370: 31ff 0d3e 760b 183e d7ff 5e3c 4e0f af3c
00000380: 59ea 0d3f 1fe0 333d a82b c0bc c60d 08bd
00000390: 5c36 183f b3a2 fd3e a027 f7bb 00d9 a5bb
000003a0: 4129 d7bd dc2e 0b3f eeb4 623f 8dfc 5d3f
000003b0: 8916 c2bd de85 853e 69ac 683d fdf4 b63c
000003c0: 88b0 5a3d 3105 3d3f d8be 563e b521 843f
000003d0: 3c17 983f 4507 053f f7de 5e3f e360 243f
000003e0: 0fe5 05bf de52 b23c e01f efbc a19b 583e
000003f0: c0b1 9dbc 38c5 3b3c 7933 173f 0ce7 3d3f

l3.bias f4 [3]
0.7561084 0.51504385 0.32360104
00000000: 5290 413f ead9 033f 09af a53e
